Chatbot/Connecting Chatbot/data.pth (torch, 28351 bytes, 6 tensors)

l1.weight f4 [8, 408]
00000000: 2e1c a4be 9929 ff3f df2f 2940 2383 2d40
00000010: 6a74 c0bf 8181 c4bd bca2 2f3f 5cfd 923f
00000020: e7f7 b73f 0778 0a3f f739 e5bc f566 8f3f
00000030: ad65 8c3e cbe8 bd3f 337a c63f 10ea 2bbb
00000040: db8d 0340 96b3 8dbf 52b7 09bf 08bd ba3d
00000050: a1a0 02bf d4f4 e23f bb76 87bf 12c4 0840
00000060: 7729 26be 7ec1 1e40 40be 65be 3a3d 953d
00000070: 1503 63bf 37db 9a3f cf15 0fbe 6830 e1bc
00000080: 494b 7dbe 5053 f2bd 8f0e cabf 114c 853c
00000090: 08d6 a43e 292e 84bf 386b 10bf df58 153f
000000a0: 086c b23f 1e38 08bf ecd3 603f 93fd 283c
000000b0: 3c5e 9dbe 5faf c83e 975c cf3f 31e6 bfbd
000000c0: a145 16c0 6c6b 1e3d 2934 2940 ce28 0a40
000000d0: ac55 dcbe 6563 a53f d5d8 013f b65a e63d
000000e0: 405a b7be dd6b a83e 2065 3540 0a84 0d40
000000f0: 5cac a33f 8301 93bd a1ed 573f 14e7 163f
00000100: f694 743f 05d4 3840 1cbf b4be 9136 71bd
00000110: fc2c 943f 0a23 ca3f e8de ee3f 365c a83f
00000120: 6444 7dbf 166b 0cbd dbe9 a8be 232e 0740
00000130: 69e7 963f 733d 50be 483d 53bf 72dc 7bbf
00000140: d972 0cc0 9064 fcbf b5f1 4fbd 84cf c33e
00000150: def9 f4be 04a3 03c0 90d2 c43c 8227 9dbe
00000160: 8335 873f 08c7 4abb 8517 21bf 2d33 53bf
00000170: 31b7 303f 4c68 e23f 4bc3 87bf c76e 5a3f
00000180: 6c29 ddbd 9075 14bf 8d13 84be badf 0c40
00000190: 1c27 74be a1c8 b8bf 6a23 f53f 062b 6f3f
000001a0: e293 a5bf f9f5 babf 79a5 e2bd 48b7 383f
000001b0: c8b0 f13f d2d9 3040 7c92 dd3c 8f31 18bf
000001c0: db58 0240 53d8 cf3f bf30 c2bf 0e61 993f
000001d0: 145b b03f db26 c4bc 6082 413c 0407 36bf
000001e0: 6ade a1bf 99e9 b43d c645 bb3e dd62 943f
000001f0: fe5f 143f b85c ce3d 76e1 1f3f c0e2 87bc
00000200: 1038 8a3e ec23 93bf 40d3 59bf c05f 3840
00000210: 7637 573f 6485 2e40 c329 453f b36e 7ebe
00000220: 3c79 08bf d8c6 99be 6c0f e33f 10ad c7bd
00000230: d601 ed3f 06b3 d9bf 5d45 cc3f 4945 54bf
00000240: 5f15 b9bf 5e51 703f fa6d 5c3f b08d b8bf
00000250: 1e53 053e 94c5 843e 3e7a 1cc0 a6ad 153e
00000260: 4d76 dfbe 08e9 f53b 7ec3 693f 206d 0bbf
00000270: 8de8 bf3f 92c0 1140 a679 96be 42da a33f
00000280: 4731 efbd da93 d9be 05c2 acbf a23d dabe
00000290: 7aae dabe 11c7 d8be 1cab 7ebf 7500 dabe
000002a0: 80fc d9be 4f99 1bbf fa3a 87bc 3844 a4bc
000002b0: a142 123f 3c1b 143f 5cca d3bf 98d2 8640
000002c0: 1874 3dbe 7884 0c3f fad3 963f a058 28bf
000002d0: e29e 69be 9b88 9c3f 9526 97bf a2bc 65bf
000002e0: 0ddb 2e40 e777 78bf 504c 11c0 530b 17bf
000002f0: 2265 88bd 86b0 80bf 76c1 ae3f e21d a33f
00000300: 4ec3 e63f cff8 1dbe dc6c 22c0 40ee b0bf
00000310: 8385 b53f ca61 c5be 40a3 1fbf 71d5 19bd
00000320: 4514 e43f 3cc6 4abd 8211 d9be 9dae 4b3f
00000330: 05bb 0ebf 0aed adbf 7def 563f bccd 8fbf
00000340: a985 e0bd dba8 79bd ff05 81bf b5c0 1c3f
00000350: 4809 053f 92db fa3f 5768 71bf ce23 883f
00000360: 6154 23bc a719 e23f 93ec bb3f f9ee 993e
00000370: 99eb 823f 28fb 35be 36ba 29bc fecf 0b40
00000380: 526f 43bf 0c5b e63f 8176 2d40 0020 c73f
00000390: 3513 763f 8ecb 2f3d de50 94bf dc5a 16bd
000003a0: ea25 a43f dc96 783f 1031 acbf ef30 093f
000003b0: bfb3 fcbd e122 673f e54d 3fbe 52d1 75be
000003c0: c6b9 7ebd 7978 9cbe 16d2 463f 8707 17bf
000003d0: f967 88bf 3789 f23d 4538 1e3e 194b bfbd
000003e0: c47a 2340 cf01 09bc 7443 bcbe 769e 1e40
000003f0: 10a5 783f 3777 2bbc 2490 1c40 8db4 a03f
-0.3205275 1.993457 2.6435468 2.711129 -1.5035527 -0.095950134 0.6860769 1.1483569
1.4372529 0.540894 -0.027981741 1.1203295 0.27421322 1.4836668 1.5506042 -0.0026232041
2.0555332 -1.107043 -0.5379535 0.09118086 -0.5102635 1.7730966 -1.0583109 2.1369672
-0.16226755 2.4805598 -0.22435856 0.07287069 -0.8867658 1.2098149 -0.13973163 -0.027488902
-0.2473575 -0.11832297 -1.5785693 0.016271623 0.32194543 -1.0326587 -0.564136 0.5833873
1.3939219 -0.5321063 0.8782337 0.010314363 -0.30735958 0.39196298 1.6200131 -0.093700774
-2.3479998 0.038676664 2.6438086 2.1587405 -0.43034112 1.2920958 0.50721484 0.112477705
-0.35811043 0.32894793 2.8342972 2.211184 1.2786975 -0.07178023 0.8434697 0.5894635
0.95539796 2.8879406 -0.35302055 -0.05888993 1.1576228 1.5791943 1.8661776 1.315314
-0.9893248 -0.034281813 -0.32990918 2.112191 1.1789371 -0.20335941 -0.8251538 -0.9838325
-2.1945097 -1.9718189 -0.05076762 0.3824426 -0.47846884 -2.0568247 0.024026185 -0.30694205
1.0563205 -0.0030941386 -0.6292651 -0.82499963 0.6902953 1.7688079 -1.0606474 0.8532528
-0.10798916 -0.57991886 -0.25796166 2.2011552 -0.23843044 -1.4436227 1.9151433 0.93425024
-1.2935755 -1.4606315 -0.11066718 0.72154665 1.8882074 2.7632947 0.027047388 -0.5945062
2.0366733 1.6237892 -1.5171126 1.1982744 1.3777795 -0.023944309 0.011810869 -0.71104455
-1.2646 0.08833618 0.3657667 1.1592671 0.5795897 0.100762784 0.624534 -0.016587615
0.26995897 -1.1495337 -0.85087967 2.880844 0.84069 2.7268915 0.7701685 -0.24846916
-0.5330999 -0.30034518 1.7739081 -0.09749806 1.8516185 -1.7007759 1.5958668 -0.8291822
-1.4459647 0.93874156 0.8610531 -1.441824 0.13019988 0.2593199 -2.444961 0.14617023
-0.43644944 0.007504586 0.9131392 -0.54463387 1.4992844 2.2773786 -0.29389685 1.2800982
-0.11679321 -0.42495614 -1.349671 -0.42625147 -0.4271124 -0.42339376 -0.9947984 -0.42578474
-0.42575455 -0.60780805 -0.016507614 -0.02005206 0.5713292 0.57854056 -1.654613 4.2132072
-0.18501318 0.5488963 1.178344 -0.6576023 -0.22814515 1.2229189 -1.1808649 -0.89740956
2.7321198 -0.97057956 -2.2702827 -0.59001654 -0.066599146 -1.0053871 1.365279 1.2743495
1.8028352 -0.15426944 -2.5378942 -1.3822708 1.418137 -0.3855117 -0.62358475 -0.03755707
1.7818686 -0.049505457 -0.4239617 0.79563314 -0.5575412 -1.3587964 0.8395918 -1.123466
-0.10962994 -0.06095205 -1.0079955 0.6123155 0.5196729 1.9598258 -0.94299835 1.0635927
-0.009968848 1.7664078 1.4681572 0.30065134 1.0228149 -0.1777159 -0.010359338 2.1845698
-0.76341736 1.7996535 2.710358 1.5556641 0.9612306 0.042918734 -1.1587179 -0.036707744
1.282407 0.97105193 -1.3452473 0.5359029 -0.12338971 0.90287596 -0.18682058 -0.2400563
-0.062188886 -0.30560663 0.77664316 -0.5899586 -1.065673 0.11842578 0.15451153 -0.093404956
2.554368 -0.008362248 -0.36770213 2.4784217 0.97126865 -0.010465435 2.4462976 1.25551

l1.bias f4 [8]
00000000: dccb c53e 49c2 593f 4d4b b63e 6b4d 723f
00000010: 5c25 2c3f 10ad 723f 3018 633f 3cf4 a13f
0.38632095 0.8506208 0.35604325 0.9464938 0.67244506 0.9479532 0.8870878 1.265266

l2.weight f4 [8, 8]
00000000: ec37 1fbe 1f2f 1a3f 48a4 7040 0aaf f8bf
00000010: dce5 6f40 232c babf a66e 113f 2ea6 2840
00000020: ccd1 883f 9391 26bf b9a6 113f 4bd4 bd3f
00000030: fb20 3c3e 3fbb 113f aa10 bcbf 5cc6 5cbf
00000040: c823 9fbe 80e2 dcbb 54b9 d6bd af56 09be
00000050: 6d3a 78be e35f 16be 50d4 dfbc 1093 c93c
00000060: 40ee f93e c522 7140 efe9 9fbf e4d6 4d40
00000070: 4b15 efbf 1652 13c0 1095 3b3f a11b a93f
00000080: 0885 6140 d38d f8bf db4b debe 85b1 803f
00000090: 808a 513f 2859 0f40 e163 bfbf e97c 243f
000000a0: 875a 2dc0 8d01 11c0 f39c d9bf abd9 643f
000000b0: fff3 ac3e 7fd9 903f 4b61 3440 ead5 0f40
000000c0: 0e51 703f d6d4 a6be 814a 0340 5661 893f
000000d0: 77c2 f2bf 2041 323f 1925 4c40 00d2 04bf
000000e0: c0e7 ddbf 61da 0a40 fd8e e3bf 113e 913f
000000f0: 780a 923f 6f87 7340 b399 57bf d92a 0fbf
-0.15548676 0.6022815 3.760027 -1.9428418 3.7484045 -1.454472 0.5680946 2.6351428
1.0689025 -0.6506588 0.56895024 1.4830412 0.18371956 0.5692634 -1.4692585 -0.8624017
-0.31081986 -0.006740868 -0.10484567 -0.13411973 -0.24241038 -0.14685015 -0.027322918 0.024606258
0.48814583 3.7677472 -1.2493266 3.216241 -1.8678373 -2.3018851 0.73274326 1.3211557
3.5237446 -1.9418281 -0.43417248 1.0054175 0.8185196 2.2398167 -1.4952356 0.642531
-2.7086504 -2.2657197 -1.7001022 0.89394635 0.33779904 1.1316375 2.8184383 2.2474313
0.9387368 -0.32584256 2.0514224 1.073283 -1.8965596 0.6963062 3.1897643 -0.51882935
-1.733635 2.1695788 -1.7778012 1.1347066 1.1409445 3.8051412 -0.842189 -0.55924755

l2.bias f4 [8]
00000000: 3717 193e 9304 da3e 6fd7 33be 6816 4d3f
00000010: fcbb cbbb 12fd 733f 6fce a7be ccfb 973f
0.14950262 0.42581615 -0.1756265 0.80112314 -0.006217478 0.9530803 -0.32774684 1.1873717

l3.weight f4 [117, 8]
00000000: 0ff0 ae3d 257e 0640 f4f9 91be 73c1 d2bf
00000010: e78b 6bbf d5ed 82c0 38c4 e4c0 c128 b7be
00000020: f047 32bf 0c87 fcc0 f336 b4be 642c 74bf
00000030: c92c 6d3e 152a 12be 992b 733e 3473 243e
00000040: b8d5 7ebf 19cc e33f c470 82be 8491 193e
00000050: b40a 09bf be22 7ebf f287 28bf eb19 efbf
00000060: f300 6bbe 6314 0e3f 2169 9cbe 61bd 0bc0
00000070: 2fe5 4abf ea06 20be 48b3 0cbe 8d40 883d
00000080: a3ab ae3d 622e 0c3c 172a b43e 4ae4 dec0
00000090: 2da3 913d 91fe 9b3d dc84 fabf d0f3 3ebf
000000a0: 8350 08c0 cd4f 62bf 40ba 803c 78df dfbe
000000b0: c278 dd3c c3bc f73e 5a30 27bf 22a7 0d3f
000000c0: 108f c2bf c772 923e b7eb 863e b1b2 06c0
000000d0: 0028 6e3f ca19 d5c0 2010 9ebf 4c8d c03c
000000e0: 0103 15c0 1e39 25bf 70e9 e13d 3243 c8be
000000f0: 40f1 723e 10d8 b63e d632 f5bd 7fc7 7c3e
00000100: 0a0a c0be 48ed 9bbf b38a 14be 665b 033f
00000110: cce6 20bd 1bfe cfc0 58da f0be d190 bfbe
00000120: 3e5a a5bf d748 03c0 20b3 073c 5430 abbf
00000130: 7873 e9be 73b6 d7bf e41a 903f 5d5e f23d
00000140: 913b 13bf cd96 efc0 f652 7dbe 9442 86be
00000150: 9e7a 4ac0 f4c2 edbf 0578 813f 5cf7 e03e
00000160: 58ff 00be d264 6ac0 901a 87bd 2b09 dcbe
00000170: 09e6 153f 3054 e5c0 d462 a93e 4ef3 47bf
00000180: 885c 6dbf 0b7f d23e 4e79 f2bd 73b4 db3e
00000190: a39f 92c0 3e0e 82c0 e4e8 7e3f fc76 04c0
000001a0: 8dca e8c0 8ffe 983f a67e 4abe bc09 05be
000001b0: e0b5 29bf e87b 0ec0 4ec5 ffbf 9ce0 5b3f
000001c0: 55a1 dd3e 5d8b 82c0 da1c 90be c191 a0bf
000001d0: 092b 00c1 2091 0fbe cbe2 2ebf 5ead 123f
000001e0: 9ad7 2dc0 509a 51bf d08b 9e3d 7dd5 51be
000001f0: 2ac9 bbbe 9d14 c6c0 12f9 30c0 5005 9f3f
00000200: a03f 65bf c3d0 5abf d64f 9bbe c08a 8ebe
00000210: 0635 afbe 13b7 c43d 9679 d13e c31c 60bf
00000220: 57b1 01be 35fe d4bf c870 143e 61b8 493e
00000230: c6c1 0bbf 5735 1abf c9f9 94bd 0c0c 15c0
00000240: 6dfd f0be 2c05 08bf 19a1 24be be51 b5bf
00000250: 1fc4 66bf 9eea 96c0 0bbd 093f ce17 1c3f
00000260: 2f14 adc0 6a14 b9bf 4500 9f3e b662 e03e
00000270: de46 27c0 f4fd 7b3f 6be8 123f 68fb aebf
00000280: 56d8 f0be 8925 a8c0 00d5 203c ed01 c93e
00000290: eb3e c6bf 5b5c 1c3f af45 b8bd 152b 2dbf
000002a0: 24e6 1bc0 82b1 aabe 9810 98bd aa00 f2be
000002b0: d0b7 ca3b ae1f e9bd 3251 843f 8eb9 33c0
000002c0: dcbb 22c0 98fa 873e 0cfa bb3d 6ac6 763f
000002d0: 4350 acc0 ae07 8bbf 2de5 f1bf b854 083f
000002e0: 4c64 3f3f 430f 1dbf 7a1b e2bd ed6a b4c0
000002f0: b1d4 883e 8710 c0bf 1f03 ebbf 7092 76c0
00000300: 2e0c 923e c3ba 6ec0 502a 4d3d b8a0 1e3f
00000310: 2d0f 22bd 3b56 61c0 1751 28c0 4eb2 14c0
00000320: 3728 9bbf c03a 75c0 da2e eabd f01b 783f
00000330: a1b0 edc0 00ad 0bc0 8bab 3f3f 9f93 84bf
00000340: b9ab 683e 8cbc 40c0 3e87 673e c0b1 27bd
00000350: 3a84 1dc0 8cb4 aec0 6384 013f 512e 38bf
00000360: ba66 12c0 c426 dd3f 4bbd b1be f64e 83c0
00000370: 0787 ee3e 7eed ffbe c994 98c0 09d1 a13e
00000380: ff95 45c0 9344 23be 4640 9bbe b68b 47be
00000390: 7def 4e3f 50dc aec0 1668 f7bb 8c68 44bf
000003a0: 3ca8 12bf 574d 12bf 69d6 8a3e ac6c b7c0
000003b0: 1cee 553e 33c3 bec0 1294 c03d 55a7 b23e
000003c0: 98dc dfc0 2ede 823f 184f aebd 5e58 a43e
000003d0: fc1a 083f 5985 02bf a190 d0be 836d eebf
000003e0: 7908 c1c0 debf 633f 002a 083e bdf6 533e
000003f0: 8358 b4bf d154 cc3d ab03 03bd 3158 edbe
0.08541881 2.1014493 -0.28511012 -1.6465286 -0.9201035 -4.091532 -7.1489525 -0.3577328
-0.6964102 -7.891485 -0.35198173 -0.95380235 0.23161615 -0.14273866 0.237471 0.16059572
-0.9954486 1.7796661 -0.25476658 0.14996916 -0.53531957 -0.9927176 -0.65832436 -1.8679785
-0.22949581 0.5549986 -0.30548957 -2.1834338 -0.79255956 -0.15627638 -0.13740265 0.06652937
0.08528831 0.00855598 0.35188362 -6.9653673 0.071112014 0.07616914 -1.9571795 -0.7459078
-2.129914 -0.88403016 0.01571381 -0.4372518 0.02703512 0.483862 -0.65308154 0.5533315
-1.5199909 0.28603193 0.2635171 -2.1046565 0.93029785 -6.659398 -1.2348671 0.023504876
-2.3283083 -0.6454028 0.11030853 -0.39113766 0.23724842 0.35711718 -0.11972587 0.24685477
-0.3750766 -1.2181787 -0.14506035 0.5131134 -0.039282605 -6.4997687 -0.47041583 -0.37415174
-1.2918165 -2.0513208 0.008282453 -1.3374124 -0.45595908 -1.6852554 1.1258206 0.118344046
-0.57512766 -7.4871583 -0.24738678 -0.2622267 -3.163734 -1.857512 1.0114752 0.4393872
-0.12597406 -3.6624036 -0.06596863 -0.42975745 0.5855413 -7.166527 0.33083212 -0.7810563
-0.92719316 0.4111255 -0.11839543 0.4291111 -4.581987 -4.0642385 0.9957411 -2.0697622
-7.2747254 1.1952685 -0.19774875 -0.12991995 -0.66293144 -2.2263126 -1.9982088 0.858896
0.4328715 -4.079512 -0.28147012 -1.254448 -8.010507 -0.14020205 -0.6831481 0.5729579
-2.7162843 -0.8187609 0.07741511 -0.20491596 -0.36676913 -6.1900163 -2.765202 1.2423496
-0.8955021 -0.85474795 -0.30334347 -0.27840233 -0.3422014 0.09605231 0.40913075 -0.87543887
-0.12665306 -1.6640078 0.14496148 0.19699241 -0.5459255 -0.6023764 -0.07274205 -2.3288603
-0.4706835 -0.5313289 -0.16077079 -1.4165571 -0.9014301 -4.71614 0.5380408 0.60973823
-5.408714 -1.4459355 0.31054893 0.4382531 -2.6137004 0.98434377 0.5738589 -1.3670473
-0.4704005 -5.254582 0.009816408 0.39259282 -1.5487951 0.61078423 -0.08997666 -0.6764386
-2.4359217 -0.33338553 -0.0742504 -0.47266132 0.006186463 -0.113829955 1.0337279 -2.8082004
-2.542716 0.26558375 0.09178552 0.96396506 -5.3847976 -1.0861719 -1.8898064 0.5325427
0.74762416 -0.6135141 -0.11040397 -5.6380525 0.2672477 -1.5005044 -1.8360327 -3.8526878
0.28524917 -3.730149 0.05008918 0.6196399 -0.039565254 -3.520888 -2.6299493 -2.3233829
-1.2121648 -3.8317108 -0.114347175 0.9691763 -7.427811 -2.182434 0.7487113 -1.035755
0.22721757 -3.011508 0.22610185 -0.040941 -2.4611955 -5.4595394 0.5059263 -0.71945673
-2.28752 1.7277455 -0.34714732 -4.103389 0.46587393 -0.4998588 -4.7681623 0.31604794
-3.08728 -0.15944128 -0.30322474 -0.19486889 0.8083418 -5.4643936 -0.00755025 -0.76722026
-0.57287955 -0.5714926 0.27116707 -5.7320156 0.20891613 -5.961328 0.09403242 0.3489329
-6.995678 1.0224054 -0.0851118 0.3209867 0.53166175 -0.5098472 -0.40735343 -1.862717
-6.0322843 0.8896464 0.13297272 0.20699592 -1.4089512 0.09977115 -0.03198592 -0.46356347

l3.bias f4 [117]
00000000: 5bf8 95bf e340 a9bf c1ba 9abe 2813 0cbf
00000010: fc18 c1bf d503 a03d 184c f53a 1e40 debc
00000020: 25a2 27bd 6561 5abe ae64 41bf a8b0 94bf
00000030: da4a 71be b5c1 b7bf 5152 56bf b48d 5bbf
00000040: 526f 05c0 bb0e 26c0 5cd8 43bf 03c2 5cbd
00000050: f867 21bf 136e b1be d865 1ebf 5f27 0fbf
00000060: e661 0cbf eb79 083f 211f 94bd 7e3f 4bbd
00000070: 26e5 e3be ce71 66bf eb38 60be a304 3c3f
00000080: 43f6 2f3e d04f ecbf c957 17c0 f14b e3bf
00000090: 533d 02bf aa9d 16be 246a 1fc0 2870 babf
000000a0: 77d4 d3bf 27ae 983e a17d 0fbf 9f03 48bf
000000b0: 0232 71bf 981e 0cbe 67d2 52bf d24c 98bf
000000c0: 61a7 e4bd eb32 b3be fc77 313f 47ab 46bf
000000d0: 141a f4bf b6ec 2fbf 4060 fdbe 7bd5 2fbe
000000e0: ee59 00be 68f4 7ebf ab02 95bf eae6 babe
000000f0: 0f04 f93d 3566 cabf cb1e b8bf 2b46 c83e
00000100: 1be6 003f e74c 90bd b3dc 5cbf 9f3e 16bd
00000110: 62d5 5e3f 7980 85bf 5b76 c8bd 3c11 e5bf
00000120: dc10 66bf 7af1 c6be 87a6 83bd cbfc 16bf
00000130: 6ce6 3abf c03b 33c0 a49c 483e 57cd f3bf
00000140: ae1d 96be 386f 1a3f c669 3d3e 33d4 e5bc
00000150: 87ef a43d 0628 fd3e b1fe bc3e 29c9 3cbf
00000160: e24e cdbf a990 0fc0 2f7d fabf 5c7c 13be
00000170: 4040 82be 5088 173e 8472 e5be cad0 a0be
00000180: 467f edbe 03bd 963e b76c 0a3f 95f8 0ebf
00000190: 996c a8bf 91e9 623e f652 b1be 1fbe 11bf
000001a0: ec32 b03f 42fc bc3f 1865 1cbf 853d 4cbb
000001b0: ca14 0cbf 6153 a8bf 62a3 8ebf 2218 58be
000001c0: 7b92 eabe 8438 02bf e64a 7fbe 2c10 a7be
000001d0: 8033 d6bf
-1.1716417 -1.3222927 -0.30220607 -0.5471673 -1.508575 0.07813231 0.0018714694 -0.027130183
-0.040926117 -0.21326216 -0.7554425 -1.1616411 -0.2356371 -1.435599 -0.83719355 -0.85763097
-2.0849195 -2.594649 -0.76502013 -0.05389596 -0.6304927 -0.34654292 -0.6187415 -0.5591945
-0.5483688 0.5331103 -0.072325 -0.049621098 -0.44510764 -0.900174 -0.21896712 0.73444575
0.17183785 -1.8461857 -2.364733 -1.775755 -0.50874823 -0.14708582 -2.4908533 -1.4565477
-1.6549214 0.29820368 -0.5605107 -0.78130525 -0.9421693 -0.13683546 -0.823523 -1.1898444
-0.111647375 -0.34999785 0.69323707 -0.776051 -1.9070458 -0.6872057 -0.49487495 -0.1717128
-0.12534305 -0.99591684 -1.1641439 -0.36504298 0.12158977 -1.5812441 -1.4384397 0.39116034
0.50351113 -0.07045918 -0.8627426 -0.036680814 0.87044346 -1.0429832 -0.097881995 -1.7895885
-0.89869475 -0.38856107 -0.06428247 -0.5897948 -0.73007846 -2.8005219 0.19591004 -1.904704
-0.2931952 0.60325956 0.1849738 -0.028055286 0.08053499 0.49444598 0.36913064 -0.73744446
-1.6039698 -2.2432044 -1.9569453 -0.14402908 -0.25439644 0.14798093 -0.4481393 -0.31409293
-0.46386164 0.2944108 0.54072136 -0.55848056 -1.3158141 0.22159411 -0.34633607 -0.56930727
1.376554 1.4764483 -0.61091757 -0.0031164598 -0.5471922 -1.3150445 -1.114361 -0.21102956
-0.4581488 -0.50867486 -0.24930915 -0.32629526 -1.6734467
